app/src/main/assets/modelo.tflite (tflite, 493524 bytes, 16 tensors)

arith.constant f2 [256]
000000 28 b3 72 b0 19 b0 e8 b2 01 af ef b3 4a ad 4b 2c
       -0.2236 -0.1389 -0.128 -0.2158 -0.10944 -0.2479 -0.08264 0.0671
000010 e3 ad c6 b2 51 ae ab b0 c8 b0 47 b5 26 b0 59 ae
       -0.092 -0.2117 -0.0987 -0.1459 -0.1494 -0.3298 -0.1296 -0.0992
000020 1f b1 49 b1 ac a9 d7 a9 b4 b1 01 a9 bc b1 cf a8
       -0.16 -0.1652 -0.0443 -0.04562 -0.1782 -0.0391 -0.1792 -0.03757
000030 78 ae ae 9e b8 aa 4e ac 0b a4 ff a8 aa ac b2 a9
       -0.1011 -0.006523 -0.0525 -0.06726 -0.0158 -0.03903 -0.0729 -0.0445
000040 a9 b7 19 b2 49 b1 3a ac f6 ad 71 b3 53 b3 49 ab
       -0.4788 -0.1906 -0.1652 -0.06604 -0.09314 -0.2325 -0.2289 -0.05692
000050 8d a6 01 b4 34 b1 90 b1 c4 b1 e0 aa a9 b0 df a9
       -0.02559 -0.2502 -0.1626 -0.1738 -0.1802 -0.0537 -0.1456 -0.04587
000060 a7 29 46 b4 0e a9 1c ad c3 ae 98 b3 ab ae 21 b4
       0.04416 -0.267 -0.0395 -0.07983 -0.10565 -0.2373 -0.1042 -0.258
000070 b0 ad 6b b4 97 26 46 ab 67 af 17 b1 cc b1 7d b2
       -0.08887 -0.2761 0.02574 -0.05682 -0.11566 -0.159 -0.1812 -0.2028
000080 53 b5 b7 ad d7 ac 75 b1 85 a8 ed ab 2b 31 1d ae
       -0.3328 -0.0893 -0.0756 -0.1705 -0.0353 -0.06192 0.1615 -0.0955
000090 9d b3 27 b2 f4 a5 ec b0 a5 a4 37 ba ce b3 20 99
       -0.2379 -0.1923 -0.02325 -0.1538 -0.01814 -0.777 -0.2439 -0.002502
0000a0 06 b0 d9 ae 42 b8 00 a9 79 ab 39 b0 10 27 83 b1
       -0.1257 -0.107 -0.532 -0.03906 -0.05838 -0.132 0.02759 -0.1722
0000b0 56 a9 20 b4 7e ac 86 ad 81 ae e2 b0 57 aa 0b ac
       -0.0417 -0.2578 -0.0702 -0.0863 -0.1016 -0.1526 -0.04953 -0.0632
0000c0 0e a8 aa b2 55 b0 ba aa f0 a7 db af dc 9c 19 af
       -0.03168 -0.2083 -0.1354 -0.05255 -0.031 -0.12274 -0.004745 -0.1109
0000d0 2d b1 f6 b1 55 b1 e8 ab 0c b4 19 a4 25 af dd ab
       -0.1617 -0.1863 -0.1666 -0.06177 -0.253 -0.016 -0.11163 -0.06143
0000e0 a6 1e 0d ac 71 af 72 b0 b5 ac 7f aa 39 b1 37 29
       0.006493 -0.0633 -0.1163 -0.1389 -0.07355 -0.05075 -0.1632 0.04074
0000f0 8d a5 55 ab 97 a6 49 b0 2d ad 43 af f5 27 d1 af
       -0.02168 -0.05728 -0.02574 -0.1339 -0.0809 -0.11346 0.03108 -0.12213
000100 3f ab 9f a9 ac b5 4e b2 70 aa c1 b1 24 b3 cc b1
       -0.0566 -0.0439 -0.3545 -0.197 -0.0503 -0.1798 -0.2231 -0.1812
000110 92 ac 61 b0 f6 ae 34 b2 c1 b1 0c b0 38 b4 48 b3
       -0.0714 -0.1368 -0.10876 -0.1938 -0.1798 -0.1265 -0.2637 -0.2275
000120 c1 b1 62 b0 4f af 37 ad 6c b0 33 ab a7 ae 10 ac
       -0.1798 -0.137 -0.1142 -0.0815 -0.1382 -0.05624 -0.10394 -0.0635
000130 6a ac 79 b4 89 af 48 b0 7a ac 6d ab 3f b1 c8 b4
       -0.069 -0.2795 -0.11774 -0.1338 -0.06995 -0.058 -0.164 -0.2988
000140 84 ac d6 ad 06 a8 83 b1 92 ab 84 b0 55 a4 41 ac
       -0.07056 -0.0912 -0.03143 -0.1722 -0.05914 -0.1411 -0.01692 -0.06647
000150 09 ae 32 b2 4f ac fe ab bc ab ff b3 87 b1 08 b6
       -0.0943 -0.1936 -0.0673 -0.06244 -0.06042 -0.2499 -0.1727 -0.377
000160 e5 b0 9a b0 19 b0 26 aa ec a8 62 b2 ea af 36 aa
       -0.153 -0.1438 -0.128 -0.04803 -0.03845 -0.1995 -0.12366 -0.04852
000170 22 b3 89 a4 8e ad 2f ae 13 a9 fb b1 2f b0 ab b4
       -0.2229 -0.01772 -0.0868 -0.0966 -0.03964 -0.1869 -0.1307 -0.2917
000180 68 b7 25 b2 f6 ac f1 ae 33 b2 a5 8d 02 ae a5 24
       -0.463 -0.192 -0.0775 -0.10846 -0.1937 -0.0003445 -0.0939 0.01814
000190 af b2 5e b0 79 b1 10 ad 02 ab 66 ae 04 ac aa af
       -0.2089 -0.1365 -0.171 -0.0791 -0.05475 -0.1 -0.06274 -0.11975
0001a0 28 ac dc b3 e5 b0 0a a8 92 a7 f9 b9 66 a8 07 aa
       -0.06494 -0.2456 -0.153 -0.03156 -0.02957 -0.7466 -0.03436 -0.0471
0001b0 56 b1 87 26 11 a3 f3 af 1d ae 3f ae 51 b0 5e af
       -0.1667 0.0255 -0.0138 -0.1242 -0.0955 -0.0976 -0.1349 -0.1151
0001c0 8a b4 de b5 2d ac 2b ae 99 ad 46 af 97 b0 cf ac
       -0.2837 -0.3667 -0.06525 -0.0964 -0.08746 -0.11365 -0.1434 -0.07513
0001d0 f0 aa d1 24 8c 28 1f a9 12 b0 9d b1 54 9e 83 af
       -0.0542 0.01881 0.03552 -0.04 -0.1272 -0.1754 -0.00618 -0.1174
0001e0 71 b2 84 22 b3 ad f6 9d bd 9c 75 b3 76 24 10 a4
       -0.2013 0.012726 -0.08905 -0.00582 -0.004627 -0.233 0.01743 -0.01587
0001f0 04 b0 59 a8 89 a9 fe ae a3 a5 4f ae fa 2b dd a9
       -0.1255 -0.03397 -0.04324 -0.10925 -0.02202 -0.0986 0.06232 -0.0458

arith.constant1 f2 [256]
000000 6c 27 f9 30 b3 29 79 26 a2 2a 1f 27 4a 29 2e 29
       0.02899 0.1554 0.04453 0.02528 0.05182 0.02782 0.04132 0.04047
000010 45 28 0e 26 05 2d bd 25 b7 28 1b 2b 30 24 d4 26
       0.03336 0.02365 0.0784 0.02242 0.03683 0.0555 0.01636 0.02667
000020 1d 25 7d 23 da 29 00 29 59 24 ac 26 78 23 a2 29
       0.01997 0.014626 0.04572 0.03906 0.01698 0.02606 0.01459 0.044
000030 b9 27 37 29 25 27 db 21 ea 24 87 26 bf 26 4d 28
       0.03017 0.04074 0.02791 0.01144 0.0192 0.0255 0.02635 0.0336
000040 07 27 36 28 e6 29 2c 24 36 29 07 2a 34 26 dd 24
       0.02745 0.0329 0.04608 0.0163 0.0407 0.0471 0.02423 0.019
000050 75 28 58 24 42 27 2e 29 97 2e 16 24 a6 28 a1 29
       0.03482 0.01697 0.02835 0.04047 0.10297 0.01596 0.03632 0.04398
000060 ad 28 fd 22 b0 25 08 27 a7 24 ad 24 1b 25 c7 24
       0.03653 0.01365 0.02222 0.02747 0.01817 0.01826 0.01994 0.01866
000070 47 26 0a 29 f4 9c 94 24 b6 29 eb 27 3d 33 38 24
       0.02452 0.03937 -0.004837 0.01788 0.04462 0.03093 0.2262 0.01648
000080 05 28 56 27 9e 25 14 25 f9 1c 4e 26 99 2a 41 28
       0.0314 0.02866 0.02194 0.01984 0.004856 0.02463 0.05154 0.03323
000090 fd 23 91 27 89 28 57 28 c7 29 19 2b 9e 28 79 14
       0.0156 0.02956 0.03543 0.0339 0.04514 0.05545 0.03607 0.001092
0000a0 1f 24 10 26 f9 2a ca 24 49 24 aa 25 92 2a 68 27
       0.0161 0.02368 0.05447 0.0187 0.01674 0.02213 0.05133 0.02893
0000b0 9f 25 41 28 4e 24 84 26 36 25 b6 26 86 26 a7 20
       0.02196 0.03323 0.01682 0.02545 0.02036 0.02621 0.02548 0.00909
0000c0 da 27 47 26 59 25 4c 26 f7 20 a3 29 5c 1c b2 26
       0.03067 0.02452 0.02089 0.0246 0.0097 0.04404 0.004257 0.02615
0000d0 5a 26 a4 29 bd 25 6e 25 18 28 a9 28 b8 24 99 24
       0.02481 0.04407 0.02242 0.02121 0.03198 0.0364 0.01843 0.01796
0000e0 bf 29 7d 24 73 2f 83 26 ec 25 06 2c 21 26 21 28
       0.0449 0.01753 0.1164 0.02544 0.02313 0.06287 0.02394 0.03226
0000f0 13 20 8a 27 1b 27 4c 2a 9a 26 6b 24 ae 25 7a 22
       0.00796 0.02945 0.02776 0.0492 0.02579 0.01726 0.02219 0.01265
000100 14 28 11 2a 58 28 43 26 8f 23 18 28 30 27 4c 28
       0.03186 0.0474 0.03394 0.02446 0.01476 0.03198 0.02808 0.03357
000110 2c 25 8e 26 5d 2b d0 29 40 24 49 28 46 27 f7 27
       0.0202 0.0256 0.05753 0.0454 0.0166 0.03348 0.02841 0.03111
000120 65 28 71 2c ad 25 1f 25 ff 28 f9 25 b8 23 aa 23
       0.03433 0.0694 0.02217 0.02 0.03903 0.02333 0.015076 0.01497
000130 80 22 76 26 cf 29 40 27 35 24 2b 2c 24 27 39 29
       0.012695 0.02524 0.04538 0.02832 0.01643 0.0651 0.0279 0.0408
000140 fb 28 15 29 9f 27 53 25 84 24 b4 24 c8 26 ea 1d
       0.0389 0.0397 0.02977 0.0208 0.01764 0.01837 0.02649 0.005775
000150 e9 28 db 2c e7 2a 34 28 ff 26 1d 2a 7c 28 3e 28
       0.03836 0.07587 0.05392 0.03284 0.02733 0.04776 0.03503 0.03314
000160 28 25 69 24 17 29 73 27 4b 28 f6 25 23 21 97 25
       0.02014 0.01723 0.03976 0.0291 0.03354 0.02328 0.01003 0.02184
000170 ae 25 0c 29 73 25 bd 23 51 26 d3 28 40 24 7b 28
       0.02219 0.03943 0.02129 0.015114 0.02467 0.0377 0.0166 0.035
000180 5c 24 29 26 73 1f 26 22 4c 25 5a 1c cd 26 a6 2b
       0.01703 0.02406 0.007275 0.01201 0.02069 0.00425 0.02657 0.05975
000190 62 27 bf 22 6d 26 aa 26 8a 22 57 2a f3 27 1c 26
       0.02884 0.013176 0.0251 0.02603 0.01277 0.04953 0.03105 0.02386
0001a0 ee 29 e0 27 03 28 17 27 b8 29 df 29 86 28 4f 20
       0.04633 0.03076 0.03134 0.0277 0.04468 0.04587 0.03534 0.008415
0001b0 64 25 4e 26 9d 1e 60 25 23 2a e9 28 b2 22 94 25
       0.02106 0.02463 0.00646 0.021 0.04794 0.03836 0.01308 0.02179
0001c0 73 2c f3 28 c3 20 2d 26 b2 20 a5 21 63 25 57 29
       0.0695 0.03867 0.0093 0.02412 0.00917 0.011024 0.02104 0.04172
0001d0 46 22 47 2b 66 27 2d 28 e6 2d cf 2f 83 27 e7 25
       0.01225 0.05685 0.0289 0.03262 0.09216 0.122 0.02934 0.02306
0001e0 ee 26 5e 28 8f 23 0d 13 15 1a 4b 27 28 2b 31 26
       0.02707 0.03412 0.01476 0.0008607 0.00297 0.02849 0.0559 0.02419
0001f0 3d 23 fa 26 85 29 70 26 58 27 3f 2a 84 2b 72 25
       0.01414 0.02725 0.04312 0.02515 0.02869 0.0488 0.05872 0.02127

arith.constant2 f2 [64]
000000 2f a8 df a0 b2 22 1a a7 b6 b9 c1 ac 3d 9c a2 b0
       -0.03268 -0.009514 0.01308 -0.02774 -0.714 -0.0743 -0.00414 -0.1448
000010 74 be 91 be 6c b4 39 ac 6e c3 3f 20 b5 aa 2f 27
       -1.613 -1.642 -0.2764 -0.066 -3.715 0.00829 -0.0524 0.02806
000020 47 2a e7 bb 9a be a3 28 24 23 ec b6 14 a6 58 c1
       0.04904 -0.988 -1.65 0.03622 0.01395 -0.4326 -0.02374 -2.672
000030 dc b4 a6 2b dd a1 c9 b0 37 2d e1 a8 ac ba 72 9c
       -0.3037 0.05975 -0.01145 -0.1495 0.0815 -0.03812 -0.834 -0.00434
000040 16 a3 52 b9 09 bd a2 bd dd b9 6f a6 b1 b8 65 b9
       -0.01384 -0.665 -1.259 -1.408 -0.733 -0.02513 -0.5864 -0.6743
000050 0f ac 60 b9 26 b8 47 b8 9d bf c6 26 29 c0 8b 26
       -0.0634 -0.672 -0.5186 -0.5347 -1.903 0.02646 -2.08 0.02556
000060 ba a5 b6 a0 bf 2a e3 a8 f0 a2 e3 2a c5 21 7d c0
       -0.02237 -0.0092 0.0527 -0.03818 -0.01355 0.0538 0.01127 -2.244
000070 61 29 f6 a1 9e 34 45 bd d5 b7 3a 2a d8 b3 df 28
       0.04202 -0.01164 0.2886 -1.317 -0.4895 0.04865 -0.2451 0.03806

arith.constant3 f2 [64]
000000 a5 39 d1 4f bf 4e 9b 4f 65 39 f6 4c a1 4e 37 40
       0.7056 31.27 26.98 30.42 0.6743 19.84 26.52 2.107
000010 c0 3e 30 3e 35 3a e7 4e ea 32 d4 4f d3 4f c1 4f
       1.6875 1.547 0.776 27.61 0.2161 31.31 31.3 31.02
000020 e3 4f c2 3b 1e 3c 23 4d bc 4e 0b 3c ed 4f 97 36
       31.55 0.9697 1.029 20.55 26.94 1.011 31.7 0.4119
000030 5a 40 6b 4d 7a 4d de 4f b6 4f fc 4f c7 3d 04 50
       2.176 21.67 21.9 31.47 30.84 31.94 1.444 32.12
000040 f9 4f cf 3e 56 38 3d 3e 26 3e b1 4f 83 38 3a 3a
       31.89 1.702 0.542 1.56 1.537 30.77 0.564 0.7783
000050 da 41 17 3b c1 3c 76 3c 70 3f cb 4f 5c 3b 17 4e
       2.926 0.886 1.188 1.115 1.859 31.17 0.92 24.36
000060 d2 4f 14 4e cd 4f 48 4e c1 4f f3 4f 00 4e 55 38
       31.28 24.31 31.2 25.12 31.02 31.8 24.0 0.5415
000070 db 4f d6 4f da 4f 03 40 75 39 01 50 d7 4f e2 4f
       31.42 31.34 31.4 2.006 0.682 32.03 31.36 31.53

arith.constant4 f2 [128]
000000 47 bb 75 ba 52 b6 15 bc 46 b6 bc b9 1f bc 29 be
       -0.9097 -0.807 -0.395 -1.0205 -0.392 -0.717 -1.03 -1.54
000010 84 ba 2b b9 a7 be 26 b9 85 b5 ca bf 20 bb d6 bb
       -0.8145 -0.646 -1.663 -0.6436 -0.345 -1.947 -0.8906 -0.9795
000020 d1 b9 ca b8 de bc 40 bc 77 bc d2 bd e6 b8 ad ba
       -0.727 -0.5986 -1.217 -1.0625 -1.116 -1.455 -0.6123 -0.8345
000030 40 b7 8d 2f 07 bc 02 bd 2c bb b2 b1 2c bc b3 b8
       -0.4531 0.118 -1.007 -1.252 -0.8965 -0.178 -1.043 -0.5874
000040 62 bc a0 b9 6e be 29 bc 1f bc b4 ba 2e b8 1a bb
       -1.096 -0.703 -1.607 -1.04 -1.03 -0.838 -0.5225 -0.8877
000050 73 ba 9d bd a8 bd 28 b9 2f b3 35 bc 80 b9 29 bc
       -0.806 -1.403 -1.414 -0.6445 -0.2245 -1.052 -0.6875 -1.04
000060 38 b8 30 b9 12 bd 08 bb fc ba 00 be d5 b7 e2 ba
       -0.5273 -0.6484 -1.268 -0.879 -0.873 -1.5 -0.4895 -0.8604
000070 b9 ba 82 bd 58 af b6 b9 c1 bb 72 b8 72 b8 ae bb
       -0.8403 -1.377 -0.11475 -0.714 -0.969 -0.5557 -0.5557 -0.96
000080 0e bc 03 bd 8e bb 4b ba 34 bb 12 bb 3f bf 01 b8
       -1.014 -1.253 -0.9443 -0.7866 -0.9004 -0.884 -1.812 -0.5005
000090 05 bb 1d b9 bd bb fc bb a6 ba d8 ba d9 b8 3a bb
       -0.8774 -0.639 -0.9673 -0.998 -0.831 -0.8555 -0.606 -0.9033
0000a0 2b bb 91 bc 30 b6 92 bb 80 bc 73 bc 14 bb 25 ba
       -0.896 -1.142 -0.3867 -0.9463 -1.125 -1.112 -0.885 -0.768
0000b0 48 ba f8 bc a2 b9 ae ba 37 bb 3c ba 51 bb e7 ba
       -0.785 -1.242 -0.704 -0.835 -0.902 -0.7793 -0.9146 -0.863
0000c0 a2 ba 2f bc 44 b8 0b b9 29 bf 08 bc d5 ba e4 b9
       -0.829 -1.046 -0.533 -0.6304 -1.79 -1.008 -0.854 -0.7363
0000d0 25 bc fa ba a9 be dc bb 3b b4 db bc f3 b8 a3 ba
       -1.036 -0.872 -1.665 -0.9824 -0.2644 -1.214 -0.6187 -0.8296
0000e0 b9 ba d3 ba 65 b8 fb b9 0a bc e2 bc 41 ba 37 bb
       -0.8403 -0.853 -0.5493 -0.7476 -1.01 -1.221 -0.7817 -0.902
0000f0 4f b8 1e b9 a7 bc a6 b9 9c bc 55 bc 79 bb 78 b8
       -0.5386 -0.6396 -1.163 -0.706 -1.152 -1.083 -0.934 -0.5586

arith.constant5 f2 [128]
000000 ee 33 b6 36 9c 35 cb 38 12 37 f9 34 9f 35 9d 37
       0.2478 0.4194 0.3506 0.599 0.442 0.3108 0.3513 0.4758
000010 85 38 68 37 f9 38 d2 37 69 34 62 39 1f 38 9f 34
       0.565 0.463 0.6216 0.4888 0.2756 0.673 0.515 0.2888
000020 ba 35 51 39 95 3a 62 36 7b 36 9f 3b cc 35 be 37
       0.358 0.6646 0.8228 0.399 0.405 0.9526 0.3623 0.484
000030 7a 36 1c 34 10 34 46 36 08 36 82 36 30 37 67 35
       0.4048 0.2568 0.254 0.392 0.377 0.4067 0.4492 0.3376
000040 e2 34 81 36 25 39 6f 34 3f 36 d0 34 c7 35 26 35
       0.3052 0.4065 0.643 0.277 0.3904 0.3008 0.361 0.3218
000050 ef 39 e2 35 9a 37 05 36 fe 33 c3 36 fd 34 70 34
       0.7417 0.3677 0.475 0.3762 0.2498 0.4226 0.3118 0.2773
000060 fa 37 9b 36 84 37 8f 32 37 37 bb 38 68 34 52 38
       0.4985 0.4128 0.4697 0.205 0.451 0.5913 0.2754 0.54
000070 c6 34 b1 38 4b 33 29 34 b7 37 8b 34 bb 36 5e 36
       0.2983 0.5864 0.2279 0.26 0.4822 0.284 0.4207 0.398
000080 2a 37 0f 37 72 36 a3 35 3a 32 be 36 3a 38 8f 36
       0.4478 0.4412 0.4028 0.3523 0.1946 0.4214 0.5283 0.41
000090 da 36 ab 38 c1 35 18 35 05 38 b2 36 8c 37 eb 3b
       0.4282 0.5835 0.3596 0.3184 0.5024 0.4185 0.4717 0.9897
0000a0 54 34 e0 37 b6 37 1e 38 46 35 e0 34 cf 38 a6 33
       0.2705 0.4922 0.482 0.5146 0.3296 0.3047 0.601 0.239
0000b0 83 35 9f 36 cf 36 a8 34 29 35 e0 33 37 37 b4 37
       0.3445 0.4138 0.4255 0.291 0.3225 0.2461 0.451 0.4814
0000c0 c5 36 1f 35 16 37 c8 39 d3 37 17 38 c4 34 f8 36
       0.423 0.32 0.4429 0.7227 0.489 0.511 0.2979 0.4355
0000d0 ca 37 47 35 67 35 a7 35 d8 37 80 36 d5 36 c4 36
       0.4868 0.3298 0.3376 0.3533 0.4902 0.4062 0.427 0.4229
0000e0 1b 37 28 37 7e 38 eb 35 9d 38 92 35 7b 34 0c 39
       0.444 0.4473 0.5615 0.3699 0.5767 0.3481 0.28 0.631
0000f0 57 34 0c 38 18 38 5a 34 ea 36 f3 36 b5 34 1c 38
       0.2712 0.506 0.5117 0.272 0.4321 0.4343 0.2942 0.5137

arith.constant8 f2 [128]
000000 98 b6 5f ae be b5 a3 b4 62 b5 1a b8 c2 b3 10 af
       -0.412 -0.09955 -0.359 -0.2898 -0.3364 -0.5127 -0.2424 -0.11035
000010 be b6 e9 b3 72 b6 6d b7 e0 b2 28 b5 16 b3 d7 b3
       -0.4214 -0.2472 -0.4028 -0.464 -0.2148 -0.3223 -0.2214 -0.245
000020 7f b7 9b b5 b0 b4 cf b7 c1 b3 55 b8 75 b4 d7 b5
       -0.4685 -0.3503 -0.293 -0.488 -0.2423 -0.5415 -0.2786 -0.365
000030 b6 b4 0f b6 e5 b6 57 b2 c1 b5 83 b4 95 b6 9f b8
       -0.2944 -0.3787 -0.431 -0.1981 -0.3596 -0.282 -0.4114 -0.5776
000040 57 b6 1f b8 79 b6 cb b2 b4 b5 73 b4 86 b4 ee b1
       -0.3962 -0.515 -0.4045 -0.2123 -0.3564 -0.278 -0.2827 -0.1853
000050 03 b5 14 b5 8a b4 04 b6 bb b4 49 b7 24 b4 c7 b4
       -0.3132 -0.3174 -0.2837 -0.376 -0.2957 -0.4553 -0.2588 -0.2986
000060 e2 b2 32 b6 28 b5 34 b5 15 b5 3e b8 11 b2 9f b4
       -0.2151 -0.3872 -0.3223 -0.3252 -0.3176 -0.5303 -0.1896 -0.2888
000070 93 b6 a7 b7 34 b7 3f b7 9a b5 ad b6 58 b4 6e ac
       -0.411 -0.4783 -0.4502 -0.453 -0.35 -0.4172 -0.2715 -0.0692
000080 d7 b4 5f b5 b6 b6 c5 b1 f9 b5 06 b9 06 b7 29 b6
       -0.3025 -0.3357 -0.4194 -0.1803 -0.3733 -0.628 -0.439 -0.385
000090 73 b7 b0 b8 89 ac 2f b9 1e b6 92 b5 67 b5 94 b6
       -0.4656 -0.586 -0.07086 -0.648 -0.3823 -0.3481 -0.3376 -0.4111
0000a0 be b6 18 b8 3c b7 9f b6 eb b2 63 b6 cb b1 e3 b2
       -0.4214 -0.5117 -0.4521 -0.4138 -0.2162 -0.3992 -0.181 -0.2152
0000b0 c2 b9 ac b5 0d b9 63 b5 53 b3 74 b6 07 b5 64 b5
       -0.7197 -0.3545 -0.6313 -0.3367 -0.2289 -0.4033 -0.3142 -0.337
0000c0 1a b6 b9 b3 f3 b4 28 b8 e3 ad 6f b4 29 b8 e3 b8
       -0.3813 -0.2413 -0.3093 -0.5195 -0.092 -0.277 -0.52 -0.611
0000d0 ad b6 07 b8 a1 b4 eb b5 ce b2 59 b6 6a b5 6e b4
       -0.4172 -0.5034 -0.2893 -0.3699 -0.2126 -0.3967 -0.3384 -0.2769
0000e0 7d b4 8f b6 67 b4 cd b5 b9 b6 0c b4 18 b1 64 b3
       -0.2805 -0.41 -0.2751 -0.3625 -0.4202 -0.253 -0.1592 -0.231
0000f0 cf b5 01 b3 7d b4 57 b1 45 b6 92 b4 24 b7 c6 b4
       -0.363 -0.2189 -0.2805 -0.1669 -0.3918 -0.2856 -0.4463 -0.2983

arith.constant9 f2 [32]
000000 fc aa 3c b2 90 34 ad ad 25 33 58 b8 39 b4 b8 2e
       -0.05457 -0.1948 0.2852 -0.0887 0.2233 -0.543 -0.264 0.105
000010 ed af e0 2a 53 36 98 b3 2e b7 3f 2c 2f 35 72 ad
       -0.12384 0.0537 0.3953 -0.2373 -0.4487 0.06635 0.324 -0.0851
000020 89 b2 36 2d 6e b4 87 b2 6b 30 ea 35 36 b3 c7 b4
       -0.2042 0.0814 -0.2769 -0.204 0.1381 0.3696 -0.2253 -0.2986
000030 3f b4 42 b8 fb 2c 8f 32 a1 b5 42 b3 d7 b0 4c 1a
       -0.2654 -0.532 0.0778 0.205 -0.3518 -0.2268 -0.1512 0.003075

arith.constant10 f2 [128, 256]
000000 6f 2e 99 b3 ac b7 c5 37 80 b6 44 33 66 23 fb b3
       0.1005 -0.2374 -0.4795 0.4856 -0.4062 0.227 0.01445 -0.2494
000010 f0 98 f1 32 ed 2f ce 35 de b4 f4 b7 98 38 d9 30
       -0.00241 0.2169 0.12384 0.3628 -0.3042 -0.497 0.574 0.1515
000020 70 2f ba 30 0a b6 14 33 98 a8 6c 34 0f 9d 6b b8
       0.1162 0.1477 -0.3774 0.2212 -0.0359 0.2764 -0.00494 -0.5522
000030 ab ac b7 2a 62 23 99 ab cf 36 94 a5 be ae b6 34
       -0.07294 0.05246 0.01442 -0.05936 0.4255 -0.02179 -0.10535 0.2944
000040 01 1e d3 b4 e2 b2 ca 34 aa b4 50 af 9f b2 75 b0
       0.005863 -0.3015 -0.2151 0.2993 -0.2915 -0.11426 -0.2069 -0.1393
000050 ae 37 51 33 f2 b7 70 ba 7b ac 63 37 8d 35 ab 31
       0.48 0.2286 -0.4966 -0.8047 -0.07 0.4617 0.347 0.1771
000060 c1 b2 c1 30 0a 33 ec 34 3d 33 2f b0 d7 24 5b 2b
       -0.211 0.1486 0.22 0.3076 0.2262 -0.1307 0.0189 0.05746
000070 ee 2b 60 31 bb 30 20 b4 50 38 33 34 d8 af 42 38
       0.06195 0.168 0.1478 -0.2578 0.539 0.2625 -0.12256 0.532
000080 29 37 2d 27 2c ab 8b 37 f9 34 04 b8 9d ad d0 37
       0.4475 0.02803 -0.05603 0.4714 0.3108 -0.502 -0.0877 0.4883
000090 0c b6 92 2d f2 2a d2 2b 68 21 4e 33 36 34 32 2c
       -0.378 0.08704 0.05426 0.0611 0.01056 0.2283 0.2632 0.06555
0000a0 7a b4 fe 34 3a ba ac 33 8d b6 e3 99 b5 34 bf 33
       -0.2798 0.312 -0.7783 0.2397 -0.4094 -0.002874 0.2942 0.2421
0000b0 74 b2 e0 36 dc af 15 b0 5d 2e 71 b4 01 b7 6d 27
       -0.2017 0.4297 -0.1228 -0.1276 0.0994 -0.2776 -0.4377 0.029
0000c0 52 b7 08 30 ef 22 7a b4 60 34 43 b0 d8 33 60 b3
       -0.4575 0.126 0.01354 -0.2798 0.2734 -0.1332 0.2451 -0.2305
0000d0 8c 2d 70 31 4b 3b bf a9 14 36 88 b8 3a 2a 92 b7
       0.0867 0.1699 0.9116 -0.0449 0.38 -0.5664 0.04865 -0.4731
0000e0 bd 34 db b0 ba af 3f a5 90 36 b3 a5 86 2c 76 af
       0.2961 -0.1517 -0.1207 -0.0205 0.4102 -0.02226 0.0707 -0.1166
0000f0 21 aa 5b 36 31 1c 81 34 98 ad 41 2c 2a 32 6b 31
       -0.04788 0.3972 0.004093 0.2815 -0.0874 0.06647 0.1926 0.1693
000100 3a ab 98 af c4 b5 42 b2 06 2f 70 2f c1 37 43 30
       -0.05646 -0.11865 -0.3604 -0.1956 0.10974 0.1162 0.4846 0.1332
000110 e9 30 ca b0 b4 35 06 32 f3 b5 77 b2 f6 29 9d b7
       0.1534 -0.1497 0.3564 0.1882 -0.3718 -0.202 0.04657 -0.4758
000120 c6 34 26 34 55 31 34 34 50 aa 3f b4 93 b6 41 2f
       0.2983 0.2593 0.1666 0.2627 -0.04932 -0.2654 -0.411 0.11334
000130 63 34 2a 37 e2 35 94 34 45 b1 fc 33 81 38 13 b5
       0.2742 0.4478 0.3677 0.2861 -0.1647 0.2495 0.563 -0.3171
000140 ae ad fa 29 48 b7 13 b2 41 2c 07 b6 84 2e 55 ac
       -0.08875 0.0467 -0.455 -0.1898 0.06647 -0.3767 0.1018 -0.0677
000150 b4 36 26 34 eb b8 28 b7 3b 2e c1 2c e8 34 d5 36
       0.419 0.2593 -0.6147 -0.4473 0.09735 0.0743 0.3066 0.427
000160 4e 27 be 2e 64 32 f8 31 8c b5 50 38 c6 35 3c 36
       0.02853 0.10535 0.1997 0.1865 -0.3467 0.539 0.3608 0.3896
000170 6b 35 55 33 3e b3 54 33 ee 29 86 30 b1 a6 dc 34
       0.3386 0.2291 -0.2263 0.229 0.04633 0.1414 -0.02614 0.3037
000180 36 34 9b 29 b0 ad 1e 31 25 ae 1e ac 99 b4 88 2d
       0.2632 0.0438 -0.08887 0.1599 -0.096 -0.06433 -0.2874 0.0864
000190 ae 33 25 a5 34 33 9a 1a 96 2d 9c 36 10 b7 60 ae
       0.24 -0.0201 0.2251 0.003223 0.0873 0.413 -0.4414 -0.0996
0001a0 42 ad 70 31 13 ad 22 b2 14 b1 9b 31 0b b2 52 30
       -0.08215 0.1699 -0.0793 -0.1917 -0.1587 0.1752 -0.1888 0.135
0001b0 4b b1 7b 34 38 31 a1 35 db b8 5f b8 e2 ac 2e 31
       -0.1654 0.28 0.1631 0.3518 -0.607 -0.5464 -0.0763 0.1619
0001c0 b3 2c 76 36 86 16 e9 2d 89 30 6e b3 00 34 7d b1
       0.0734 0.4038 0.001593 0.09235 0.1417 -0.2322 0.25 -0.1715
0001d0 fc 30 16 28 bb 27 2d 34 8c b5 b8 35 54 b6 8b 30
       0.1558 0.03192 0.0302 0.261 -0.3467 0.3574 -0.3955 0.142
0001e0 48 35 9d 36 17 39 af 35 cb 33 1e 9a 54 35 90 b5
       0.33 0.4133 0.636 0.3552 0.2435 -0.002987 0.333 -0.3477
0001f0 5c 37 c0 34 6d ad 83 36 02 b8 23 ad 29 aa b3 38
       0.46 0.2969 -0.0848 0.407 -0.501 -0.08026 -0.04813 0.5874

arith.constant11 f2 [32, 128]
000000 06 8d aa b8 89 bd 12 33 db b9 49 bc cd bc f3 31
       -0.0003066 -0.583 -1.384 0.221 -0.732 -1.071 -1.2 0.1859
000010 83 b0 c2 2c 13 ba 44 a4 1d bc 41 bb 1c b3 fd 34
       -0.141 0.07434 -0.7593 -0.01666 -1.028 -0.9067 -0.2222 0.3118
000020 fd 32 a7 b7 11 30 2e 2f 48 2f 90 b8 0b bb c7 30
       0.2184 -0.4783 0.1271 0.1122 0.1138 -0.5703 -0.8804 0.1493
000030 85 ad 45 b6 41 bd ff b8 04 b5 91 b8 6a 34 85 bd
       -0.08624 -0.3918 -1.313 -0.6245 -0.3135 -0.571 0.276 -1.38
000040 b7 b6 cb bd 6c b9 38 b8 5a b9 de b4 5e 31 f4 27
       -0.4197 -1.448 -0.6777 -0.5273 -0.669 -0.3042 0.1677 0.03107
000050 3f bb 32 b8 1a bb b2 bd 46 31 68 bb 0b ba a6 2f
       -0.906 -0.5244 -0.8877 -1.424 0.1648 -0.926 -0.7554 0.1195
000060 3f bc 4b b5 8f 30 13 be 89 31 e1 b0 f0 34 e2 b9
       -1.062 -0.3308 0.1425 -1.519 0.173 -0.1525 0.3086 -0.7354
000070 b0 b8 ea 2d 1e 2e eb b9 a2 2a 7d b4 5c 32 b6 2e
       -0.586 0.0924 0.0956 -0.7397 0.05182 -0.2805 0.1987 0.10486
000080 66 b9 ec 33 da be 51 bb f1 b7 ce bc 59 bb 68 ba
       -0.675 0.2476 -1.713 -0.9146 -0.4963 -1.201 -0.9185 -0.801
000090 d7 29 d8 2c 6c b4 81 b6 69 b9 e3 bc 17 bb bb bc
       0.04562 0.0757 -0.2764 -0.4065 -0.6763 -1.222 -0.886 -1.183
0000a0 83 bd 86 bc cc 30 a7 b8 eb 29 9c be 1c 34 6e bc
       -1.378 -1.131 0.1499 -0.5815 0.04623 -1.652 0.2568 -1.107
0000b0 68 29 0d b5 9f b6 fe b4 7f bb f6 ba d0 a8 32 ba
       0.04224 -0.3157 -0.4138 -0.312 -0.937 -0.87 -0.0376 -0.7744
0000c0 4d ba d1 33 d4 b9 ef b7 b7 ad 28 ba 8b bb dd bb
       -0.7876 0.2443 -0.7285 -0.4958 -0.0893 -0.7695 -0.943 -0.983
0000d0 e6 b9 31 b8 4d ba f1 32 9d b9 4d b6 65 b5 fd b8
       -0.7373 -0.524 -0.7876 0.2169 -0.7017 -0.3938 -0.3372 -0.6235
0000e0 7b b2 7b ba ca 2f 91 b8 34 2f 45 a7 8a bd a9 2e
       -0.2025 -0.81 0.1217 -0.571 0.11255 -0.0284 -1.385 0.10406
0000f0 4c bb b8 ba 16 bb 28 31 94 b9 32 30 b2 2c 9c a9
       -0.912 -0.84 -0.8857 0.1611 -0.6973 0.1311 0.07336 -0.04382
000100 d8 29 ab 30 1e 34 bc bc 91 ba 85 a9 e8 b8 04 bc
       0.04565 0.1459 0.2573 -1.184 -0.821 -0.04312 -0.6133 -1.004
000110 0d ab 5d b6 d3 26 d0 b3 ee 2e f1 33 79 ae 8e bb
       -0.05508 -0.3977 0.02666 -0.2441 0.1083 0.2482 -0.10114 -0.9443
000120 e3 bc ab ba 0c b5 4e b9 90 b9 cc ad 07 b5 33 bc
       -1.222 -0.8335 -0.3154 -0.663 -0.6953 -0.0906 -0.3142 -1.05
000130 db b2 de bd 51 b9 ca bc fd 20 c9 31 90 be e2 32
       -0.2142 -1.467 -0.6646 -1.197 0.00974 0.1808 -1.641 0.2151
000140 67 ba 73 ba f2 b8 7f bd fb ba a9 b9 6a ba b8 2d
       -0.8003 -0.806 -0.618 -1.374 -0.8726 -0.7075 -0.802 0.08936
000150 2a b4 06 33 9f 34 11 2b 49 ba 65 2e b2 31 e1 bb
       -0.2603 0.2195 0.2888 0.0552 -0.7856 0.0999 0.178 -0.985
000160 0a bc 32 94 4d bd ca 30 64 34 b5 bb 44 bc 66 b7
       -1.01 -0.001024 -1.325 0.1497 0.2744 -0.9634 -1.066 -0.4624
000170 29 b7 46 b8 49 b9 a3 30 13 bc dc bc 9e b8 f3 b8
       -0.4475 -0.534 -0.6606 0.1449 -1.019 -1.215 -0.577 -0.6187
000180 ac 31 57 b9 9c ba 7b be 8c 33 70 b7 be 2a e6 b4
       0.1772 -0.6675 -0.826 -1.62 0.2358 -0.4648 0.05267 -0.3062
000190 76 34 88 b5 a5 b9 23 a6 0c bc 84 b5 8a 32 13 bd
       0.2788 -0.3457 -0.7056 -0.02397 -1.012 -0.3447 0.2043 -1.269
0001a0 f2 34 e4 29 f7 b9 9c 32 4b b1 77 b5 d0 b4 f9 b9
       0.309 0.04602 -0.7456 0.2065 -0.1654 -0.3416 -0.3008 -0.7466
0001b0 56 b9 38 31 6e 34 50 bc b6 bd 2f 34 a4 b1 18 34
       -0.667 0.1631 0.2769 -1.078 -1.428 0.2615 -0.1763 0.2559
0001c0 ed b8 40 bc e3 2b d6 b2 ee bf d7 34 34 b9 1b b9
       -0.6157 -1.0625 0.0616 -0.2136 -1.982 0.3025 -0.6504 -0.638
0001d0 33 bc b1 b7 62 b9 71 c0 b3 b8 f2 26 79 bc fc bb
       -1.05 -0.4807 -0.673 -2.22 -0.5874 0.02713 -1.118 -0.998
0001e0 ef b8 24 b8 1b 2e 6b 2c bd bd 96 32 81 b6 2a bc
       -0.6167 -0.5176 0.0954 0.06903 -1.435 0.2058 -0.4065 -1.041
0001f0 1d 9f 06 b8 d5 bb 4d bf d7 b0 22 25 f5 b7 de b8
       -0.006947 -0.503 -0.979 -1.825 -0.1512 0.02005 -0.4973 -0.6084

arith.constant12 f2 [64, 1, 3, 412]
000000 fe a4 08 a8 46 2e 95 28 ee 2c 3a ae b2 27 69 b4
       -0.0195 -0.0315 0.098 0.0358 0.077 -0.0973 0.03006 -0.2756
000010 4a b4 85 b6 a8 20 c2 34 45 28 24 2a 65 b1 ee 29
       -0.268 -0.4075 0.009094 0.2974 0.03336 0.04797 -0.1686 0.04633
000020 a7 b5 73 a1 71 2e 83 31 09 34 6e a8 0b 2c b1 2d
       -0.3533 -0.01064 0.10065 0.1722 0.2522 -0.0346 0.0632 0.0889
000030 20 af e2 27 86 2c c1 2c 6a 31 74 13 7a 33 2b 2e
       -0.1113 0.03079 0.0707 0.0743 0.1692 0.00091 0.2336 0.0964
000040 dc 31 5c 30 c9 22 19 b0 f0 2e 2c a8 78 30 fe 31
       0.1831 0.1362 0.01325 -0.128 0.1084 -0.0326 0.1396 0.1873
000050 87 2d 85 35 05 2b 77 1d ce b5 2e 34 8d b7 fc ab
       0.08636 0.345 0.05484 0.005337 -0.3628 0.2612 -0.472 -0.06238
000060 21 b8 ab b0 e1 b6 9b b4 23 b4 fe ac 0c b1 8a b4
       -0.516 -0.1459 -0.43 -0.2878 -0.2585 -0.078 -0.1577 -0.2837
000070 a5 b4 6b b5 e5 b0 78 b7 77 31 ba b1 c0 a2 be b4
       -0.2903 -0.3386 -0.153 -0.4668 0.1708 -0.179 -0.01318 -0.2964
000080 3b 30 b8 b2 78 35 3e b3 93 38 69 b3 f9 2b 5e b4
       0.1322 -0.21 0.3418 -0.2263 0.572 -0.2316 0.0623 -0.273
000090 66 2e e0 27 5f 34 1c 30 3e 39 f2 b4 f3 2d 8e b3
       0.1 0.03076 0.2732 0.1284 0.6553 -0.309 0.09296 -0.2361
0000a0 c2 ac cc 21 a6 ac ed 31 81 3e 7e b4 16 b8 52 34
       -0.07434 0.01132 -0.07263 0.1852 1.626 -0.2808 -0.5107 0.27
0000b0 75 a9 88 34 8a bf 9b 31 50 3e 84 b3 74 3e 62 b3
       -0.04263 0.2832 -1.885 0.1752 1.578 -0.2349 1.613 -0.2307
0000c0 d3 3e b3 b3 52 3d c7 af 68 ae 3f 34 b1 ae 97 34
       1.706 -0.2406 1.33 -0.1215 -0.1001 0.2654 -0.10455 0.2869
0000d0 9e 36 5c b3 4d 32 ba b4 92 33 a6 b4 09 2d 18 3d
       0.4136 -0.23 0.1969 -0.2954 0.2366 -0.2905 0.0787 1.273
0000e0 70 a9 7e 34 7c 2d 18 39 a4 2c cb 37 7b b1 63 35
       -0.04248 0.2808 0.0857 0.6367 0.0725 0.487 -0.1713 0.3367
0000f0 7d b0 e5 34 03 b2 f1 34 21 b7 d7 34 9b 30 dd 2c
       -0.1403 0.306 -0.1879 0.3088 -0.4456 0.3025 0.1439 0.076
000100 0b 2f 86 36 f3 33 0c b2 01 b0 98 33 87 b3 ec 33
       0.11005 0.4077 0.2484 -0.189 -0.1251 0.2373 -0.2352 0.2476
000110 29 b4 75 34 ba b5 c1 31 ce ad 5c 34 fc 31 be b1
       -0.26 0.2786 -0.358 0.1798 -0.0907 0.2725 0.187 -0.1794
000120 aa 33 bb b1 5c 36 c7 b2 40 39 9e b2 0e 39 f4 b3
       0.2395 -0.1791 0.3975 -0.2118 0.6562 -0.2068 0.632 -0.2485
000130 f7 38 50 b1 90 34 97 b2 3c 33 06 b4 a5 2c f4 38
       0.6206 -0.166 0.2852 -0.2059 0.2261 -0.2515 0.0726 0.619
000140 d5 32 4c b2 3b b4 4a 32 fe b0 74 34 27 b7 bf 34
       0.2135 -0.1968 -0.2644 0.1965 -0.156 0.2783 -0.447 0.2966
000150 9d b8 81 34 84 b8 12 33 e9 21 bc 36 0d a6 23 36
       -0.5767 0.2815 -0.5645 0.221 0.01154 0.421 -0.02364 0.3835
000160 06 31 08 35 81 b3 d4 34 6b 31 20 b1 bb ae 33 36
       0.157 0.3145 -0.2345 0.3018 0.1693 -0.1602 -0.10516 0.3875
000170 18 ad 86 34 47 33 0a b4 1e 39 c9 b1 35 35 62 b2
       -0.0796 0.2827 0.2274 -0.2524 0.6396 -0.1808 0.3254 -0.1995
000180 4a 32 1b b2 f3 3e c9 b3 9e b1 39 36 dd b2 e5 35
       0.1965 -0.1908 1.737 -0.2433 -0.1755 0.389 -0.2145 0.3684
000190 5e b1 4e 35 d7 b3 9b 35 d7 b2 9c 34 6c b1 60 35
       -0.1677 0.3315 -0.245 0.3503 -0.2137 0.288 -0.1694 0.336
0001a0 1d af 14 36 37 ae b2 35 ee a6 12 35 2a aa 72 34
       -0.11115 0.38 -0.0971 0.356 -0.02707 0.317 -0.04816 0.2778
0001b0 71 bd 5b 32 be 31 64 ad 74 b2 4e 35 d8 37 1f b0
       -1.36 0.1986 0.1794 -0.0842 -0.2017 0.3315 0.4902 -0.1288
0001c0 7d 36 db b3 d3 35 86 b3 8e 31 4f b3 c6 32 d2 b1
       0.4055 -0.2455 0.364 -0.2351 0.1736 -0.2284 0.2117 -0.1819
0001d0 03 b8 29 35 f9 b7 44 34 61 b0 aa 34 61 a4 b4 39
       -0.5015 0.3225 -0.4983 0.2666 -0.1368 0.2915 -0.0171 0.713
0001e0 43 2d e0 39 01 a6 1b 38 ea b3 82 34 77 2c e2 39
       0.0822 0.7344 -0.02345 0.513 -0.2473 0.2817 0.06976 0.7354
0001f0 eb ad f0 35 ec b5 6d 34 25 aa d7 34 c3 22 5f 34
       -0.09247 0.371 -0.37 0.2766 -0.048 0.3025 0.01321 0.2732

arith.constant13 f2 [128, 1, 3, 64]
000000 15 39 e2 af 1a 2c a6 a9 c6 ae 39 ad ac 32 19 22
       0.6353 -0.12317 0.0641 -0.04413 -0.10583 -0.0816 0.2085 0.01191
000010 55 33 41 39 ea 33 40 2b 13 b3 93 33 9f b5 e8 b4
       0.2291 0.6567 0.2473 0.05664 -0.2211 0.2367 -0.3513 -0.3066
000020 88 33 04 a9 9a b6 a3 35 e1 39 df 26 5b ac 6f b6
       0.2354 -0.03918 -0.4126 0.3523 0.735 0.02684 -0.06805 -0.402
000030 e8 ab 0c 30 42 b4 51 b6 da 32 ae 36 df a6 4b 33
       -0.06177 0.1265 -0.266 -0.3948 0.2141 0.4175 -0.02684 0.2279
000040 db 31 de b2 69 34 88 33 b2 36 6f af 63 35 5d b2
       0.183 -0.2146 0.2756 0.2354 0.4185 -0.11615 0.3367 -0.1989
000050 38 b6 25 33 55 34 ab 2a 41 2e 75 2d 02 2c 75 ab
       -0.3887 0.2233 0.2708 0.0521 0.0977 0.08527 0.0626 -0.05826
000060 94 b2 69 36 21 ad 05 2e 48 34 9f 33 79 2b 41 37
       -0.2056 0.4006 -0.08014 0.09406 0.2676 0.2382 0.05838 0.4534
000070 09 2b 52 34 1f 35 51 ae 5f ae 49 33 76 b6 2e b5
       0.05496 0.27 0.32 -0.0987 -0.09955 0.2277 -0.4038 -0.3237
000080 77 3a 50 b1 66 30 2e 2f 26 b4 84 ad a4 32 ba 31
       0.808 -0.166 0.1375 0.1122 -0.2593 -0.0862 0.2075 0.179
000090 31 2b b7 3d b6 35 7d a2 6c b4 19 31 26 b5 20 b4
       0.05618 1.429 0.357 -0.01267 -0.2764 0.1593 -0.3218 -0.2578
0000a0 34 31 dd b0 67 b9 f3 32 26 37 55 a7 ad b5 7a b8
       0.1626 -0.152 -0.6753 0.2172 0.4468 -0.02864 -0.3547 -0.5596
0000b0 b2 31 53 ad f3 ae 0f b8 63 2e 3e 34 86 af 44 33
       0.178 -0.0832 -0.1086 -0.5073 0.0998 0.2651 -0.11755 0.227
0000c0 bd 30 16 b5 b2 34 8b 36 a8 38 a1 ac 93 33 0e 25
       0.1481 -0.3179 0.2935 0.409 0.582 -0.0723 0.2367 0.01974
0000d0 00 b8 e6 35 f2 2d 57 af ef 31 ff 35 18 ae d8 b0
       -0.5 0.3687 0.0929 -0.1147 0.1854 0.3748 -0.0952 -0.1514
0000e0 53 b5 0a 39 72 31 3a 30 23 32 d7 31 e6 2c be 37
       -0.3328 0.63 0.1702 0.1321 0.1918 0.1825 0.07654 0.484
0000f0 9a 34 cc 33 8b 38 00 ba e7 9a a0 36 37 b9 bb b2
       0.2876 0.2437 0.568 -0.75 -0.00337 0.414 -0.652 -0.2103
000100 12 34 b8 25 3d a9 d1 2f 72 b2 14 32 44 32 65 b4
       0.2544 0.02234 -0.04092 0.12213 -0.2014 0.19 0.1958 -0.2747
000110 50 b5 e4 3b 7c 34 22 0d 3c b6 bf 32 fa b0 bc b1
       -0.332 0.9863 0.2803 0.0003133 -0.3896 0.2108 -0.1555 -0.1792
000120 48 33 5e b2 1f b7 8f 34 ad 32 81 32 fc b3 af b5
       0.2275 -0.199 -0.445 0.285 0.2086 0.2032 -0.2495 -0.3552
000130 cd 36 b1 2f a5 b2 ba b1 f2 2e 6f 35 d6 29 64 2d
       0.425 0.1202 -0.2076 -0.179 0.1085 0.3396 0.0456 0.0842
000140 a5 33 f7 b5 d6 2c 1a 38 62 37 6b b2 66 37 c3 aa
       0.2389 -0.3728 0.07556 0.5127 0.4614 -0.2006 0.4624 -0.05283
000150 d1 b8 ed 34 2b 32 a9 a8 d6 31 98 30 91 2d 87 b1
       -0.602 0.3079 0.1927 -0.0364 0.1824 0.1436 0.087 -0.1727
000160 73 b0 f3 36 25 ab b7 30 e9 34 6c 30 a7 2e 4f 38
       -0.139 0.4343 -0.05582 0.1473 0.307 0.1382 0.10394 0.5386
000170 a7 31 71 2f 8e 33 4f b6 55 a4 11 34 41 b5 39 b4
       0.1766 0.1163 0.2361 -0.3943 -0.01692 0.2542 -0.3284 -0.264
000180 6a 36 7e 2a 03 b5 a5 31 89 36 f4 35 4a 35 64 2f
       0.401 0.05072 -0.3132 0.1764 0.4084 0.372 0.3306 0.1155
000190 75 33 06 b5 5a b6 4c 38 9b 2f 8c b5 c7 ad 11 b0
       0.233 -0.314 -0.397 0.537 0.11884 -0.3467 -0.0903 -0.1271
0001a0 3d b9 f4 36 ad 25 03 b5 e1 b2 6e a2 be 30 c2 b0
       -0.655 0.4346 0.02217 -0.3132 -0.215 -0.01256 0.1482 -0.1487
0001b0 a7 b4 3f b3 ff af 02 2d b4 b6 7c 1c 4e 3a 9a 31
       -0.2908 -0.2264 -0.12494 0.07825 -0.419 0.00438 0.788 0.175
0001c0 57 ae 9b 34 39 bd 54 38 04 30 3a 36 16 a0 c3 31
       -0.09906 0.2878 -1.306 0.541 0.1255 0.3892 -0.00798 0.18
0001d0 dc 34 4e b0 c8 ad f1 b1 06 b2 d3 b1 91 34 20 ac
       0.3037 -0.1345 -0.09033 -0.1857 -0.1882 -0.182 0.2854 -0.06445
0001e0 29 30 aa b7 6a b4 8e 34 ac b4 3a b1 15 35 f9 37
       0.13 -0.479 -0.276 0.2847 -0.292 -0.1633 0.3176 0.4983
0001f0 41 b3 60 b0 3c 9b 17 b2 7a 34 6f 18 d7 30 20 34
       -0.2267 -0.1367 -0.003532 -0.1903 0.2798 0.002165 0.1512 0.2578

arith.constant14 f2 [256, 1, 3, 128]
000000 42 31 5e 25 79 b1 0c 2c 9e 35 30 30 9b b9 0a 2f
       0.1643 0.02097 -0.171 0.06323 0.351 0.1309 -0.7007 0.11
000010 1c 3a 42 b6 63 b4 39 b8 34 b3 93 36 cb 36 d4 b5
       0.7637 -0.391 -0.2742 -0.528 -0.2251 0.411 0.4246 -0.3643
000020 6f 35 95 22 7e 37 9b b1 80 b7 0f 32 8d ae 87 b0
       0.3396 0.012856 0.4683 -0.1752 -0.4688 0.1893 -0.10236 -0.1415
000030 13 98 8b b6 ef b6 ab 39 99 25 24 b0 bd b5 3f b7
       -0.00199 -0.409 -0.4333 0.7085 0.02187 -0.1294 -0.3586 -0.453
000040 a2 36 51 34 5e b3 02 ba 09 b8 43 36 23 b1 bf 29
       0.4146 0.2698 -0.2302 -0.751 -0.5044 0.3914 -0.1605 0.0449
000050 0d b4 16 b9 10 32 8f b1 e1 2d 1f b5 bf 37 bc b0
       -0.2532 -0.6357 0.1895 -0.1737 0.09186 -0.32 0.4841 -0.148
000060 e6 b3 df af 5f 28 90 b4 bd 38 54 a7 b6 b5 2e ac
       -0.2468 -0.123 0.03415 -0.2852 0.5923 -0.02863 -0.357 -0.0653
000070 f3 ae 46 37 47 ad dc a2 ee 36 44 33 ea b0 57 31
       -0.1086 0.4546 -0.08246 -0.0134 0.433 0.227 -0.1536 0.1669
000080 f1 37 0d b4 e1 b5 76 ad 6b 37 61 37 b7 37 6d ae
       0.4963 -0.2532 -0.3674 -0.0853 0.4636 0.4612 0.4822 -0.1004
000090 85 b4 45 38 9d ad 0b b3 2a b7 4b b1 64 25 aa b5
       -0.2825 0.5337 -0.0877 -0.2201 -0.4478 -0.1654 0.02106 -0.354
0000a0 6b 33 10 34 69 2b de 35 34 aa ca b6 da 1a 8f 36
       0.2318 0.254 0.0579 0.3667 -0.04846 -0.4243 0.003345 0.41
0000b0 0d 36 a6 b9 8e 30 2c 33 b2 37 a5 36 2a 34 c5 36
       0.3782 -0.706 0.1423 0.2241 0.481 0.4153 0.2603 0.423
0000c0 09 b1 de 34 d1 ac ae b5 20 34 a2 30 d1 ab ab a8
       -0.1573 0.3042 -0.07526 -0.355 0.2578 0.1448 -0.06107 -0.03647
0000d0 3e 38 68 af 61 b4 9a b9 cb b5 cf 39 69 39 c1 32
       0.5303 -0.1157 -0.2737 -0.7 -0.362 0.726 0.6763 0.211
0000e0 72 b2 eb 36 79 b1 84 b3 d4 39 46 b5 92 37 d2 38
       -0.2014 0.4324 -0.171 -0.2349 0.7285 -0.3296 0.4731 0.6025
0000f0 e0 b0 8e 36 66 ac 6f 35 f1 af 49 b9 97 36 95 bc
       -0.1523 0.4097 -0.0687 0.3396 -0.1241 -0.6606 0.4119 -1.1455
000100 9f 20 45 b4 ee b1 ef 29 a7 33 23 32 5b ba 2e a9
       0.009026 -0.2668 -0.1853 0.04636 0.2391 0.1918 -0.7944 -0.04047
000110 ad 39 21 b6 f1 ad 2d b6 8e b5 a1 34 0e 38 7f b4
       0.7095 -0.383 -0.09283 -0.386 -0.3472 0.2893 0.507 -0.281
000120 23 35 68 ae 0d 38 46 b2 53 b8 70 9e 4d b8 46 ad
       0.321 -0.1001 0.5063 -0.196 -0.5405 -0.006287 -0.5376 -0.0824
000130 52 2c bc b8 d4 b6 1c 3a 75 ad 10 ab ae b7 02 b8
       0.0675 -0.592 -0.4268 0.7637 -0.08527 -0.05518 -0.48 -0.501
000140 3a 36 76 35 32 b1 18 ba 60 b7 4e 35 92 ac 95 28
       0.3892 0.3413 -0.1624 -0.7617 -0.461 0.3315 -0.0714 0.0358
000150 40 b5 e3 ba 3e 2e fa b0 24 2c d2 b6 e7 36 1f b3
       -0.3281 -0.861 0.09753 -0.1555 0.0647 -0.4263 0.4314 -0.2225
000160 5a b5 01 30 3a 26 bb b2 8c 38 23 33 82 b4 03 b0
       -0.3345 0.1251 0.02432 -0.2103 0.5684 0.223 -0.2817 -0.1254
000170 0a 27 ce 37 09 ad 06 ad 0d 35 39 32 19 b0 02 2f
       0.0275 0.4878 -0.0787 -0.0785 0.3157 0.1945 -0.128 0.1095
000180 9c 33 c1 b4 44 b8 46 21 2f 35 a9 38 51 32 bc 1d
       0.2378 -0.297 -0.533 0.0103 0.324 0.5825 0.1974 0.0056
000190 00 b3 eb 37 0a b3 19 b1 a9 b8 07 b4 16 30 ad b8
       -0.2188 0.4949 -0.22 -0.1593 -0.5825 -0.2517 0.1277 -0.5845
0001a0 3a 35 29 31 97 2a 8a 32 17 b2 c4 b7 b3 26 a2 34
       0.3267 0.1613 0.05148 0.2043 -0.1903 -0.4854 0.02617 0.2896
0001b0 79 38 a2 b8 19 31 b0 30 0d 37 76 90 69 32 97 36
       0.559 -0.579 0.1593 0.1465 0.4407 -0.0005445 0.2003 0.4119
0001c0 6f b4 f8 33 11 29 95 b2 ed 35 af b1 7c 31 a6 ae
       -0.277 0.249 0.03958 -0.2057 0.3704 -0.1776 0.1714 -0.1039
0001d0 2a 37 98 b3 08 b3 1f ba b3 b4 0b 3a 04 39 a1 33
       0.4478 -0.2373 -0.2197 -0.765 -0.2937 0.7554 0.627 0.2384
0001e0 34 b0 a9 34 1c b3 04 b1 e1 37 b1 b3 9d 34 1b 39
       -0.1313 0.2913 -0.2222 -0.1567 0.4924 -0.2404 0.2883 0.638
0001f0 cf b2 83 36 16 25 59 33 bd b4 22 ba 13 35 9c bc
       -0.2128 0.407 0.01987 0.2296 -0.2961 -0.7666 0.3171 -1.152

arith.constant19 f2 [64]
000000 d3 b4 0e a8 bb ac 14 ac 8c b0 d4 ac 77 af 32 ac
       -0.3015 -0.03168 -0.0739 -0.0637 -0.1421 -0.07544 -0.11664 -0.06555
000010 f6 35 a7 b8 f0 b3 4d af ae 23 1d a5 3b a5 6a a2
       0.3726 -0.5815 -0.248 -0.1141 0.015 -0.01997 -0.02043 -0.01253
000020 fd a7 72 37 1c b9 1b b6 01 b6 39 b8 25 a5 eb b6
       -0.0312 0.4653 -0.6387 -0.3816 -0.3752 -0.528 -0.0201 -0.4324
000030 cd b4 74 b1 67 b0 7a a0 e4 aa a8 ab 92 ac 44 a3
       -0.3 -0.1704 -0.1376 -0.00874 -0.05383 -0.0598 -0.0714 -0.01419
000040 22 a8 7c 37 ac 2c a4 25 12 38 b1 aa 01 3a 56 b1
       -0.0323 0.4678 0.073 0.02203 0.509 -0.05228 0.7505 -0.1667
000050 2e b5 0a a8 b1 af 8a b7 d6 37 79 90 0d bd b9 b1
       -0.3237 -0.03156 -0.1202 -0.4712 0.4897 -0.000546 -1.263 -0.1788
000060 66 a0 48 b4 bc a3 32 a9 d0 a6 a7 a3 ee af d2 3d
       -0.00859 -0.2676 -0.01511 -0.0406 -0.02661 -0.014946 -0.1239 1.455
000070 5c a1 e5 9a dd a0 2f 34 2f b5 2e b5 52 a0 d4 a5
       -0.01047 -0.003366 -0.0095 0.2615 -0.324 -0.3237 -0.00844 -0.02277

arith.constant20 f2 [128]
000000 84 38 0c ab f1 31 66 b2 25 af 4c a0 61 a9 c4 25
       0.5645 -0.05505 0.1857 -0.2 -0.11163 -0.00839 -0.04202 0.02252
000010 b6 24 c9 b0 34 39 d1 ab e6 a1 06 26 31 b0 a4 35
       0.0184 -0.1495 0.6504 -0.06107 -0.01152 0.02353 -0.131 0.3525
000020 f8 38 8d b0 ef b0 3d 36 1f 36 b5 b0 db 2e 69 25
       0.621 -0.1422 -0.1542 0.39 0.3826 -0.1471 0.1071 0.02113
000030 33 35 e8 b9 9c 3b 3b 38 ad 36 c8 a9 9e b5 b7 a8
       0.325 -0.7383 0.951 0.529 0.4172 -0.04517 -0.351 -0.03683
000040 aa 35 b7 ac cb 1d eb 38 e3 af 50 b4 42 b0 ea 36
       0.354 -0.07367 0.005657 0.6147 -0.1232 -0.2695 -0.133 0.4321
000050 17 b8 3e 35 52 24 60 30 84 39 66 37 5d 37 9f 34
       -0.511 0.3276 0.01688 0.1367 0.6895 0.4624 0.4602 0.2888
000060 e7 b3 11 b3 72 b6 e2 31 0f 36 16 2d 5f 28 42 35
       -0.247 -0.2208 -0.4028 0.1838 0.3787 0.07947 0.03415 0.3286
000070 1d 37 00 aa 55 38 1b 38 24 2e 28 34 0a 2e 2b 37
       0.4446 -0.04688 0.5415 0.513 0.09595 0.2598 0.09436 0.448
000080 6b b4 fa ab fa ac 73 b3 6a 39 f8 35 ec 2e 94 30
       -0.2761 -0.06232 -0.07776 -0.2328 0.677 0.373 0.10815 0.1431
000090 56 30 e6 26 bc 30 4a b0 c7 34 85 ac a3 b4 1d b9
       0.1355 0.02695 0.148 -0.134 0.2986 -0.0706 -0.2898 -0.639
0000a0 6d 33 cb b5 56 2e 11 b3 62 b8 32 30 29 b7 f0 39
       0.232 -0.362 0.099 -0.2208 -0.548 0.1311 -0.4475 0.742
0000b0 a2 a8 02 b9 67 af 80 b2 39 3b 40 38 a7 31 df 30
       -0.0362 -0.626 -0.11566 -0.2031 0.903 0.5312 0.1766 0.1522
0000c0 0e b4 3e 26 b0 b1 4c b6 6f 35 ac ac b6 31 20 28
       -0.2534 0.02438 -0.1777 -0.3936 0.3396 -0.073 0.1785 0.03223
0000d0 6a a6 24 30 34 38 88 b2 7c ac 55 39 6c 37 19 38
       -0.02505 0.1294 0.5254 -0.2041 -0.07007 0.6665 0.4639 0.512
0000e0 8f b6 c5 b6 7e b6 d6 25 76 1f 69 b7 19 36 0d b0
       -0.41 -0.423 -0.4058 0.0228 0.007286 -0.4631 0.381 -0.1266
0000f0 f3 33 81 30 66 b1 81 34 eb 34 2a 34 a2 37 14 af
       0.2484 0.1407 -0.1687 0.2815 0.3074 0.2603 0.477 -0.1106

arith.constant21 f2 [256]
000000 ae 2c 01 be 7c b9 d5 b6 22 ba 60 b4 4e bc 8a b6
       0.0731 -1.501 -0.6855 -0.427 -0.7666 -0.2734 -1.076 -0.4087
000010 3a ba 93 b8 88 bc ce b9 40 bb a4 bb 48 b9 e0 b8
       -0.7783 -0.572 -1.133 -0.7256 -0.9062 -0.955 -0.66 -0.6094
000020 52 bb 9b b4 20 bb 12 b9 22 b9 0d bc fe ad 6c b9
       -0.915 -0.2878 -0.8906 -0.634 -0.6416 -1.013 -0.0936 -0.6777
000030 47 34 97 b9 7c bc 3b b5 05 b9 04 bc 3c b4 db b9
       0.2673 -0.6987 -1.121 -0.327 -0.6274 -1.004 -0.2646 -0.732
000040 a8 b2 3d aa 8f b3 ae b9 d8 b6 75 bc c4 b7 00 bb
       -0.208 -0.04874 -0.2362 -0.71 -0.4277 -1.114 -0.4854 -0.875
000050 37 b9 e9 b8 2a bc bf b5 ba bc 78 b8 71 ba 2a b7
       -0.652 -0.614 -1.041 -0.3591 -1.182 -0.5586 -0.805 -0.4478
000060 c4 b2 f9 33 f9 b4 f9 ba 99 b1 b2 b5 60 bb 09 b8
       -0.2114 0.2491 -0.3108 -0.8716 -0.1749 -0.356 -0.922 -0.5044
000070 1f ba 17 b3 0a b9 f7 bb 92 2b b3 bb f7 bd fc ba
       -0.765 -0.2216 -0.63 -0.9956 0.05914 -0.9624 -1.491 -0.873
000080 06 b7 c8 b4 2e b8 91 bb 89 b9 d7 b7 9b b8 df ba
       -0.439 -0.2988 -0.5225 -0.946 -0.692 -0.49 -0.5757 -0.859
000090 06 b7 7f b5 a0 ac 9d ba 67 b5 6a b8 fe b8 9c b9
       -0.439 -0.3435 -0.07227 -0.8267 -0.3376 -0.552 -0.624 -0.701
0000a0 95 b8 5d a5 73 ba 77 ab 3e b7 40 bd 25 b5 a4 0d
       -0.5728 -0.02095 -0.806 -0.05832 -0.4526 -1.3125 -0.3215 0.0003443
0000b0 e7 b6 fb b3 30 b4 a3 b6 ee ad ed b3 c9 b6 4b b4
       -0.4314 -0.2494 -0.2617 -0.4148 -0.09265 -0.2477 -0.424 -0.2683
0000c0 ea b7 24 b4 8e a6 fe b5 60 b6 87 b5 5f b9 8f b5
       -0.4946 -0.2588 -0.0256 -0.3745 -0.3984 -0.3455 -0.6714 -0.3474
0000d0 2c b9 cf b7 0d ba 50 b0 fa b7 29 b5 fe b7 54 ba
       -0.6465 -0.488 -0.7563 -0.1348 -0.4985 -0.3225 -0.4995 -0.791
0000e0 a3 b5 82 b8 bd bd 07 ab 44 b8 f7 bb 4a b7 0d b5
       -0.3523 -0.5635 -1.435 -0.0549 -0.533 -0.9956 -0.4556 -0.3157
0000f0 c9 b4 8e b7 82 b8 42 b4 90 b9 3a 10 a6 b5 0e ae
       -0.299 -0.4722 -0.5635 -0.266 -0.6953 0.000516 -0.353 -0.0946
000100 fb b2 fc b7 02 b8 24 2d be b9 45 b6 d3 b2 53 b6
       -0.2181 -0.499 -0.501 0.0803 -0.718 -0.3918 -0.2133 -0.3953
000110 e9 b7 a7 b5 81 bb ca b9 2c b6 44 b6 3c bb 74 b5
       -0.4944 -0.3533 -0.938 -0.7236 -0.3857 -0.3916 -0.9043 -0.3408
000120 4c b4 af bd e1 a9 01 b9 a1 ba 31 b4 dd ae 82 b8
       -0.2686 -1.421 -0.04593 -0.6255 -0.8286 -0.262 -0.10724 -0.5635
000130 77 24 d2 b9 c9 ba 5f ba 4e bc 81 ba d2 bb a2 ba
       0.01744 -0.7275 -0.848 -0.7964 -1.076 -0.813 -0.9775 -0.829
000140 6f b9 a2 ba 9c b5 d3 35 2e b9 98 ba dd b3 2b b5
       -0.679 -0.829 -0.3506 0.364 -0.6475 -0.824 -0.2457 -0.323
000150 d9 bc cb b9 ef b4 a2 b0 2a b8 2b be b2 1d e6 ba
       -1.212 -0.724 -0.3083 -0.1448 -0.5205 -1.542 0.00556 -0.8623
000160 c0 b8 0e 34 37 b0 9e b8 b0 b5 00 2a fa b8 37 bb
       -0.5938 0.2534 -0.1317 -0.577 -0.3555 0.04688 -0.622 -0.902
000170 fd b3 6b bb 08 2e 78 a8 dc b8 f6 ac d7 94 5f bc
       -0.2496 -0.9272 0.09424 -0.0349 -0.6074 -0.0775 -0.001182 -1.093
000180 ac b2 af bb 87 b5 7c b8 22 b8 4f bb ac b7 3f bc
       -0.2085 -0.9604 -0.3455 -0.5605 -0.5166 -0.9136 -0.4795 -1.062
000190 27 b8 35 29 01 b8 d5 b8 fa b9 71 ba da b9 fe ad
       -0.519 0.04068 -0.5005 -0.604 -0.747 -0.805 -0.7314 -0.0936
0001a0 49 32 c5 b8 9d b4 15 be 5c bc 2d 33 a0 bb 52 a6
       0.1964 -0.596 -0.2883 -1.5205 -1.09 0.2242 -0.953 -0.02469
0001b0 23 b1 69 b9 4e b5 47 b8 bb bc 49 bd 66 b6 03 b8
       -0.1605 -0.6763 -0.3315 -0.5347 -1.183 -1.321 -0.4 -0.5015
0001c0 6c ba 32 ba 28 b7 84 ba 10 b4 7b 14 ab b9 7a ba
       -0.8027 -0.7744 -0.4473 -0.8145 -0.254 0.001094 -0.7085 -0.8096
0001d0 92 b9 95 b5 e0 b6 6b b7 05 bb c8 bd a8 b8 05 b9
       -0.6963 -0.3489 -0.4297 -0.4636 -0.8774 -1.445 -0.582 -0.6274
0001e0 df b6 54 b5 7c b9 ae b7 cc b5 72 b5 fa b9 8d b8
       -0.4294 -0.333 -0.6855 -0.48 -0.3623 -0.3403 -0.747 -0.569
0001f0 4e b2 92 ba 77 ba 8f b7 b4 ba 1f ba 12 b6 c9 b6
       -0.197 -0.8213 -0.808 -0.4724 -0.838 -0.765 -0.3794 -0.424
